…
        run_output_dir: /Users/laureberti/Git/Learn2Clean_v2/experiments/outputs/2026-02-05/16-50-26
        tensorboard_root_dir: /Users/laureberti/Git/Learn2Clean_v2/experiments/outputs/tensorboard
        wandb_dir: /Users/laureberti/Git/Learn2Clean_v2/experiments/outputs
policy:
    value: |-
        MultiInputPolicy(
          (q_net): QNetwork(
            (features_extractor): CombinedExtractor(
              (extractors): ModuleDict(
                (action_history): Flatten(start_dim=1, end_dim=-1)
                (dataset_stats): Flatten(start_dim=1, end_dim=-1)
              )
            )
            (q_net): Sequential(
              (0): Linear(in_features=11, out_features=64, bias=True)
              (1): ReLU()
              (2): Linear(in_features=64, out_features=64, bias=True)
              (3): ReLU()
              (4): Linear(in_features=64, out_features=1956, bias=True)
            )
          )
          (q_net_target): QNetwork(
            (features_extractor): CombinedExtractor(
              (extractors): ModuleDict(
                (action_history): Flatten(start_dim=1, end_dim=-1)
                (dataset_stats): Flatten(start_dim=1, end_dim=-1)
              )
            )
            (q_net): Sequential(
              (0): Linear(in_features=11, out_features=64, bias=True)
              (1): ReLU()
              (2): Linear(in_features=64, out_features=64, bias=True)
              (3): ReLU()
              (4): Linear(in_features=64, out_features=1956, bias=True)
            )
          )
        )
policy_class:
    value: <class 'stable_baselines3.dqn.policies.MultiInputPolicy'>
policy_kwargs:
    value: '{}'
profiler:
    value:
        console_summary: true
        dir: profiling_reports
        enabled: true
        html: true
        json: false
        minimal: true
        title: Data Profile Report
q_net:
    value: |-
        QNetwork(
          (features_extractor): CombinedExtractor(
            (extractors): ModuleDict(
              (action_history): Flatten(start_dim=1, end_dim=-1)
              (dataset_stats): Flatten(start_dim=1, end_dim=-1)
            )
          )
          (q_net): Sequential(
            (0): Linear(in_features=11, out_features=64, bias=True)
            (1): ReLU()
            (2): Linear(in_features=64, out_features=64, bias=True)
            (3): ReLU()
            (4): Linear(in_features=64, out_features=1956, bias=True)
          )
        )
q_net_target:
    value: |-
        QNetwork(
          (features_extractor): CombinedExtractor(
            (extractors): ModuleDict(
              (action_history): Flatten(start_dim=1, end_dim=-1)
              (dataset_stats): Flatten(start_dim=1, end_dim=-1)
            )
          )
          (q_net): Sequential(
            (0): Linear(in_features=11, out_features=64, bias=True)
            (1): ReLU()
            (2): Linear(in_features=64, out_features=64, bias=True)
            (3): ReLU()
            (4): Linear(in_features=64, out_features=1956, bias=True)
          )
        )
replay_buffer:
    value: <stable_baselines3.common.buffers.DictReplayBuffer object at 0x13272cd10>
replay_buffer_class:
    value: <class 'stable_baselines3.common.buffers.DictReplayBuffer'>
replay_buffer_kwargs:
    value: '{}'
sde_sample_freq:
    value: -1
seed:
    value: 42
start_time:
    value: 1770306628623904000
target_update_interval:
…
